…
ng 这个是不适用 dora 情况的处理，即正常 lora。\nPEFT lora加载预训练模型import jsonimport transformersfrom copy import deepcopyfrom typing import Unionfrom dataclasses import dataclass, asdictfrom datasets import load_datasetfrom transformers import (\tAutoModelForCausalLM,\tAutoTokenizer,)from peft import (    LoraConfig,\tTaskType,    get_peft_model,)\n\n\nmodel_name_or_path = \"../DC/qwen2.5-3b\"model = AutoModelForCausalLM.from_pretrained(\tmodel_name_or_path,)tokenizer = AutoTokenizer.from_pretrained(\tmodel_name_or_path,\tuse_fast=False,)print(model)\n\n\nQwen2ForCausalLM(  (model): Qwen2Model(    (embed_tokens): Embedding(151936, 2048)    (layers): ModuleList(      (0-35): 36 x Qwen2DecoderLayer(        (self_attn): Qwen2Attention(          (q_proj): Linear(in_features=2048, out_features=2048, bias=True)          (k_proj): Linear(in_features=2048, out_features=256, bias=True)          (v_proj): Linear(in_features=2048, out_features=256, bias=True)          (o_proj): Linear(in_features=2048, out_features=2048, bias=False)        )        (mlp): Qwen2MLP(          (gate_proj): Linear(in_features=2048, out_features=11008, bias=False)          (up_proj): Linear(in_features=2048, out_features=11008, bias=False)          (down_proj): Linear(in_features=11008, out_features=2048, bias=False)          (act_fn): SiLU()        )        (input_layernorm): Qwen2RMSNorm((2048,), eps=1e-06)        (post_attention_layernorm): Qwen2RMSNorm((2048,), eps=1e-06)      )    )    (norm): Qwen2RMSNorm((2048,), eps=1e-06)    (rotary_emb): Qwen2RotaryEmbedding()  )  (lm_head): Linear(in_features=2048, out_features=151936, bias=False))\n\n定义 lora 模型\ntask_type: peft 会根据任务类型进行调整，需要传入 peft.TaskType 中的对象\nr: LoRA模型的注意力维度（也叫秩）。表示低秩适应矩阵的维度。\ntarget_modules: 要应用LoRA的模块名称。如果是字符串，会执行正则匹配；如果是列表，会精确匹配或检查模块名是否以指定的字符串结尾。\nlora_dropout: LoRA层的dropout概率，防止过拟合。\nmodules_to_save:除了LoRA适配器层之外，还要保存并训练的模块。用于某些模型，如分类任务中的输出层。\nlora_alpha：缩放因子,起到的是调节作用。\n\nlora_config = LoraConfig(\ttask_type=TaskTy
…
ern': {}, 'megatron_config': None, 'megatron_core': 'megatron.core', 'trainable_token_indices': None, 'loftq_config': {}, 'eva_config': None, 'corda_config': None, 'use_dora': False, 'layer_replication': None, 'runtime_config': {'ephemeral_gpu_offload': False}, 'lora_bias': False}\n\n\n\n\npeft_model = get_peft_model(model, lora_config)peft_model.print_trainable_parameters()print(peft_model)\n\ntrainable params: 3,686,400 || all params: 3,089,625,088 || trainable%: 0.1193PeftModelForCausalLM(  (base_model): LoraModel(    (model): Qwen2ForCausalLM(      (model): Qwen2Model(        (embed_tokens): Embedding(151936, 2048)        (layers): ModuleList(          (0-35): 36 x Qwen2DecoderLayer(            (self_attn): Qwen2Attention(              (q_proj): lora.Linear(                (base_layer): Linear(in_features=2048, out_features=2048, bias=True)                (lora_dropout): ModuleDict(                  (default): Identity()                )                (lora_A): ModuleDict(                  (default): Linear(in_features=2048, out_features=16, bias=False)                )                (lora_B): ModuleDict(                  (default): Linear(in_features=16, out_features=2048, bias=False)                )                (lora_embedding_A): ParameterDict()                (lora_embedding_B): ParameterDict()                (lora_magnitude_vector): ModuleDict()              )              (k_proj): Linear(in_features=2048, out_features=256, bias=True)              (v_proj): lora.Linear(                (base_layer): Linear(in_features=2048, out_features=256, bias=True)                (lora_dropout): ModuleDict(                  (default): Identity()                )                (lora_A): ModuleDict(                  (default): Linear(in_features=2048, out_features=16, bias=False)                )                (lora_B): ModuleDict(                  (default): Linear(in_features=16, out_features=256, bias=False)                )                (lora_embedding_A): ParameterDict()                (lora_embedding_B): ParameterDict()                (lora_magnitude_vector): ModuleDict()              )              (o_proj): Linear(in_features=2048, out_features=2048, bias=False)            )            (mlp): Qwen2MLP(              (gate_proj): Linear(in_features=2048, out_features=11008, bias=False)              (up_proj): Linear(in_features=2048, out_features=11008, bias=False)              (down_proj): Linear(in_features=11008, out_features=2048, bias=False)              (act_fn): SiLU()            )            (input_layernorm): Qwen2RMSNorm((2048,), eps=1e-06)            (post_attention_layernorm): Qwen2RMSNorm((2048,), eps=1e-06)          )        )        (norm): Qwen2RMSNorm((2048,), eps=1e-06)        (rotary_emb): Qwen2RotaryEmbedding()      )      (lm_head): Linear(in_features=2048, out_features=151936, bias=False)    )  ))\n\nQV 矩阵都多了 lora 相关的矩阵\n加载数据template ={    \"description\": \"Legacy template, used by Original Alpaca repository.\",    \"prompt_input\": \"Below is an instruction that describes a task, paired with an input that provides further context. Write a response that appropriately completes the request.\\n\\n### Instruction:\\n{instruction}\\n\
…
erated_ids_trimmed, skip_special_tokens=True, clean_up_tokenization_spaces=False)print(output_text)\n\nQwen2_5_VL 的模型组成如下: Qwen2_5_VisionTransformerPretrainedModel（vision encoder）和 Qwen2_5_VLModel（LM decoder）。vision encoder 还是 ViT, patch embedding 由卷积层实现, 旋转位置编码, 之后就是正常 transformer Block 的叠加, 最后 merger 就是将 vision embedding 投影到 text modal 的 projecter, qwen2.5 vl 用的只是两层 MLP, 注意下 shape, 明显 block 的输出是 1280, merger.mlp 的输入是 5120, 这是因为将相邻的 2*2 个 token 进行融合。\nQwen2_5_VLForConditionalGeneration(  (visual): Qwen2_5_VisionTransformerPretrainedModel(    (patch_embed): Qwen2_5_VisionPatchEmbed(      (proj): Conv3d(3, 1280, kernel_size=(2, 14, 14), stride=(2, 14, 14), bias=False)    )    (rotary_pos_emb): Qwen2_5_VisionRotaryEmbedding()    (blocks): ModuleList(      (0-31): 32 x Qwen2_5_VLVisionBlock(        (norm1): Qwen2RMSNorm((1280,), eps=1e-06)        (norm2): Qwen2RMSNorm((1280,), eps=1e-06)        (attn): Qwen2_5_VLVisionSdpaAttention(          (qkv): Linear(in_features=1280, out_features=3840, bias=True)          (proj): Linear(in_features=1280, out_features=1280, bias=True)        )        (mlp): Qwen2_5_VLMLP(          (gate_proj): Linear(in_features=1280, out_features=3420, bias=True)          (up_proj): Linear(in_features=1280, out_features=3420, bias=True)          (down_proj): Linear(in_features=3420, out_features=1280, bias=True)          (act_fn): SiLU()        )      )    )    (merger): Qwen2_5_VLPatchMerger(      (ln_q): Qwen2RMSNorm((1280,), eps=1e-06)      (mlp): Sequential(        (0): Linear(in_features=5120, out_features=5120, bias=True)        (1): GELU(approximate='none')        (2): Linear(in_features=5120, out_features=2048, bias=True)      )    )  )  (model): Qwen2_5_VLModel(    (embed_tokens): Embedding(151936, 2048)    (layers): ModuleList(      (0-35): 36 x Qwen2_5_VLDecoderLayer(        (self_attn): Qwen2_5_VLSdpaAttention(          (q_proj): Linear(in_features=2048, out_features=2048, bias=True)          (k_proj): Linear(in_features=2048, out_features=256, bias=True)          (v_proj): Linear(in_features=2048, out_features=256, bias=True)          (o_proj): Linear(in_features=2048, out_features=2048, bias=False)          (rotary_emb): Qwen2_5_VLRotaryEmbedding()        )        (mlp): Qwen2MLP(          (gate_proj): Linear(in_features=2048, out_features=11008, bias=False)          (up_proj): Linear(in_features=2048, out_features=11008, bias=False)          (down_proj): Linear(in_features=11008, out_features=2048, bias=False)          (act_fn): SiLU()        )        (input_layernorm): Qwen2RMSNorm((2048,), eps=1e-06)        (post_attention_layernorm): Qwen2RMSNorm((2048,), eps=1e-06)      )    )    (norm): Qwen2RMSNorm((2048,), eps=1e-06)    (rotary_emb): Qwen2_5_VLRotaryEmbedding()  )  (lm_head): Linear(in_features=2048, out_features=151936, bias=False))\n\n\n\n\n预处理message 文本预处理messages = [    {        \"role\": \"user\",        \"content\": [            {                \"type\": \"image\",                \"image\": \"https://qianwen-res.oss-cn-beijing.aliyuncs.com/Qwen-VL/assets/demo.jpeg\",            },            {\"type\": \"text\", \"text\": \"Describe this image.\"},        ],    }]# Pre
…
